jupyter_notebook/mnist.tflite (tflite, 375724 bytes, 10 tensors)

conv2d/Conv2D_bias f4 [32]
-0.041540787 -0.014935082 -0.016542753 0.03473611 -0.086210035 0.007819864 -0.04839104 -0.08970155
-0.026968071 -0.102551535 -0.026819125 0.12377145 0.011902141 -0.025214406 -0.03444855 0.03751318
0.01819976 -0.08669478 -0.0015060706 -0.04342636 -0.11263025 -0.1272189 -0.06331367 0.0016142154
0.081398845 0.02771251 -0.008014468 -0.004158236 -0.00996129 -0.10256606 -0.071210526 -0.053497273
00000000: ac26 2abd 46b2 74bc ab84 87bc 7447 0e3d
00000010: e38e b0bd e31e 003c af35 46bd 72b5 b7bd
00000020: 25ec dcbc 8a06 d2bd c8b3 dbbc e37b fd3d
00000030: 3301 433c 718e cebc ec19 0dbd 6ca7 193d
00000040: aa17 953c 088d b1bd 5867 c5ba d7df 31bd
00000050: b0aa e6bd ac45 02be 99aa 81bd 1594 d33a
00000060: 70b4 a63d 5905 e33c 1d4f 03bc d041 88bb
00000070: ae34 23bc 280e d2bd d3d6 91bd f51f 5bbd

conv2d/kernel f4 [1, 3, 3, 32]
0.15926082 -0.10028842 -0.07745394 0.068269856 -0.07389091 -0.009037608 -0.12950973 -0.21308492
-0.050557364 0.056280773 -0.17949 -0.2450983 -0.15560646 -0.034105293 -0.11604231 -0.09666408
0.17309141 0.09246364 0.13702095 0.032980226 0.04847411 0.046390124 -0.16213858 0.06897674
0.14854223 -0.005915736 0.0051651397 -0.21129684 -0.02644924 0.1162213 0.112927265 -0.06867888
-0.12738518 -0.10352099 -0.13785717 0.17244259 0.08870405 0.12017014 0.14612436 0.08742791
-0.09773822 0.097791955 -0.09622405 -0.35227072 -0.13442974 0.0057535237 0.041156285 -0.097957835
0.21431875 0.08027703 0.088098176 -0.032385062 0.10545257 0.06717757 -0.13104887 0.15610576
0.010056024 0.1348309 -0.15322103 0.018882213 -0.122829214 0.072526254 0.11251783 0.16690518
-0.15464586 0.15758637 -0.061768647 0.007951556 -0.0062802196 0.20449346 0.10501 -0.09812859
-0.15758115 0.045442577 -0.026565492 -0.16032921 -0.08453385 -0.12909596 -0.062379792 0.09087687
0.061127216 0.08523465 -0.10533925 -0.06893645 0.045281272 -0.1422506 0.0024476198 0.09959036
-0.112389795 0.116052985 0.08400207 0.117385305 -0.18639855 -0.18556525 0.14857984 0.045071714
0.13478158 -0.14608026 0.024199767 0.0017630818 0.03000458 -0.07238871 0.11088508 0.03402933
0.13150848 -0.047631294 0.13575724 0.044373445 -0.07717909 0.04855803 -0.03660518 -0.09804295
-0.09167421 -0.013499072 0.18644503 -0.13625272 -0.021398049 0.020267405 0.010672193 0.13251503
0.077014074 -0.24977483 0.1614852 -0.15279767 0.12012683 0.014439709 -0.1907265 0.028781865
0.09758365 -0.048764072 0.15177052 -0.024608454 0.16135262 0.0035283521 0.07208742 0.07208704
-0.013080707 0.07488439 0.104973316 -0.059352618 -0.05740328 0.17441161 -0.012365834 -0.10502105
-0.004760696 -0.09011273 -0.018024972 0.13133103 -0.08439297 0.0900969 -0.020430913 0.014887786
0.055799913 -0.13429108 -0.12057946 -0.0560933 -0.06612945 0.15130764 0.025841858 0.009475262
-0.17139061 0.1355141 0.16579705 0.15378518 -0.14875804 -0.068438806 -0.024450611 0.1464711
-0.13814713 0.09010032 0.12723206 -0.3052383 -0.024042588 -0.007957456 0.06729826 0.24717367
-0.0015032947 -0.10216635 -0.24209939 0.03914145 0.07287192 -0.0661521 -0.03002149 0.063291855
-0.15118256 0.15782806 -0.25908482 0.113670476 -0.07887423 -0.042132083 0.05735336 -0.11176234
0.023139814 -0.06335161 0.061531935 -0.24709709 -0.01492263 -0.19572356 0.036874954 0.0019587297
0.102351435 -0.17707029 -0.0048371437 0.2329139 0.24744546 -0.16365717 0.10854602 -0.23625363
-0.17408052 -0.17791712 -0.055235304 0.06010063 -0.01445197 -0.1084041 -0.09013816 -0.22467266
0.15521231 0.088879086 0.13818084 0.00135777 0.10311758 -0.1827585 -0.22171205 0.04110393
0.09353854 0.04888414 -0.08384761 -0.20631613 -0.009247846 -0.20126954 -0.0531817 0.059851453
0.11599852 -0.045558937 -0.11051693 0.024639359 0.1552138 0.09535831 0.18235633 -0.031215962
-0.23788182 0.018972281 0.10860929 0.055605713 0.040778533 0.10047689 0.08804879 -0.20174076
-0.1076715 -0.2646147 0.2082245 -0.03463069 0.21582295 0.15150443 -0.14062181 0.034171484
00000000: 4515 233e 0464 cdbd 2ca0 9ebd 11d1 8b3d
00000010: 1e54 97bd 7a12 14bc 339e 04be ef32 5abe
00000020: 3d15 4fbd ab86 663d 3acc 37be 0cfb 7abe
00000030: 4d57 1fbe feb1 0bbd 97a7 edbd d1f7 c5bd
00000040: e03e 313e 945d bd3d 384f 0c3e 4616 073d
00000050: ca8c 463d 9203 3e3d a807 26be ad43 8d3d
00000060: 741b 183e cad8 c1bb 5540 a93b 335e 58be
00000070: 14ac d8bc 6f05 ee3d 6946 e73d 83a7 8cbd
00000080: 4371 02be d002 d4bd 6e2a 0dbe ca94 303e
00000090: 78aa b53d c31b f63d a0a1 153e 670d b33d
000000a0: fa2a c8bd 2647 c83d 1d11 c5bd d45c b4be
000000b0: f3a7 09be 0e88 bc3b 7e93 283d 1e9e c8bd
000000c0: 6076 5b3e 4968 a43d d16c b43d 33a6 04bd
000000d0: 84f7 d73d 6594 893d ad31 06be 30da 1f3e
000000e0: 06c2 243c 1d11 0a3e f9e5 1cbe dfae 9a3c
000000f0: e28d fbbd a588 943d c06f e63d 31e9 2a3e
00000100: 7c5b 1ebe 525e 213e 1f01 7dbd 3e47 023c
00000110: 4dca cdbb bc66 513e 7c0f d73d a4f7 c8bd
00000120: f45c 21be ff21 3a3d e09f d9bc 572d 24be
00000130: 1520 adbd bb31 04be f481 7fbd a71d ba3d
00000140: 8860 7a3d 818f ae3d 1bbc d7bd 8e2e 8dbd
00000150: db78 393d 24aa 11be 3f68 203b 08f6 cb3d
00000160: 9f2c e6bd 30ad ed3d 4709 ac3d b567 f03d
00000170: 43df 3ebe d104 3ebe 5025 183e 1e9d 383d
00000180: 2f04 0a3e 1096 15be 973e c63c 3517 e73a
00000190: 2acc f53c 8840 94bd b817 e33d 5762 0b3d
000001a0: 29aa 063e 0819 43bd f203 0b3e eec0 353d
000001b0: 1210 9ebd c9e4 463d 50ef 15bd beca c8bd
000001c0: b0bf bbbd 362b 5dbc 72eb 3e3e d585 0bbe
000001d0: f64a afbc d407 a63c 6cda 2e3c 05b2 073e
000001e0: 8eb9 9d3d f9c4 7fbe 605c 253e fe76 1cbe
000001f0: 0e05 f63d 8794 6c3c cf4d 43be f2c7 eb3c
00000200: f0d9 c73d d6bc 47bd bb69 1b3e ab97 c9bc
00000210: 9f39 253e ed3b 673b 92a2 933d 5fa2 933d
00000220: 7650 56bc fd5c 993d 40fc d63d bb1b 73bd
00000230: b41f 6bbd f598 323e 119a 4abc 4715 d7bd
00000240: 9dff 9bbb 068d b8bd 1ba9 93bc a47b 063e
00000250: 39d6 acbd b984 b83d bb5e a7bc e6eb 733c
00000260: 738e 643d 9a83 09be 5df2 f6bd 17c2 65bd
00000270: e16e 87bd 64f0 1a3e 4eb2 d33c 213e 1b3c
00000280: 0581 2fbe 35c4 0a3e b4c6 293e dd79 1d3e
00000290: 0754 18be a529 8cbd a64c c8bc 85fc 153e
000002a0: 7176 0dbe 8486 b83d 1f49 023e 3248 9cbe
000002b0: f6f4 c4bc fd5f 02bc acd3 893d 181b 7d3e
000002c0: 330a c5ba 973c d1bd e7e8 77be c952 203d
000002d0: e03d 953d c17a 87bd a1ef f5bc 299f 813d
000002e0: 9acf 1abe ae9d 213e c4a6 84be 11cc e83d
000002f0: d088 a1bd b192 2cbd 5beb 6a3d a7e3 e4bd
00000300: b58f bd3c 7dbe 81bd e908 7c3d 0507 7dbe
00000310: 0c7e 74bc c26b 48be 310a 173d 085e 003b
00000320: a19d d13d ea51 35be e780 9ebb fb80 6e3e
00000330: 5862 7d3e bf95 27be 604d de3d 79ec 71be
00000340: 2a42 32be e82f 36be 6a3e 62bd 142c 763d
00000350: f5c7 6cbc f802 debd 5b9a b8bd 9710 66be
00000360: faef 1e3e 3d06 b63d 477f 0d3e 33f7 b13a
00000370: 4f2f d33d 0b25 3bbe 7c08 63be 985c 283d
00000380: 2291 bf3d bc3a 483d 4cb8 abbd 8944 53be
00000390: 4784 17bc 9a19 4ebe 0ed5 59bd cc26 753d
000003a0: a290 ed3d 029c 3abd b356 e2bd 7bd8 c93c
000003b0: 5ef0 1e3e 384b c33d 9ebb 3a3e 9eb8 ffbc
000003c0: 4b97 73be c26b 9b3c 8c6e de3d d1c2 633d
000003d0: 6407 273d d4c6 cd3d ed52 b43d 2195 4ebe
000003e0: e082 dcbd 947b 87be ce38 553e e9d8 0dbd
000003f0: b100 5d3e fa23 1b3e 2aff 0fbe 66f7 0b3d

conv2d_1/Conv2D_bias f4 [64]
-0.0054261354 -0.019600596 -0.025726343 -0.04730505 -0.04598986 -0.062641285 -0.017176084 -0.07259273
-0.034110315 -0.06046787 -0.045891054 -0.0116326 -0.045797314 -0.030296274 -0.029531771 -0.013613435
-0.02346148 -0.011395792 0.009370819 -0.016346343 -0.007879062 -0.05391006 -0.043710805 -0.03230788
-0.033030905 -0.027648203 -0.03377262 -0.03109166 -0.06358655 -0.008875574 -0.024131892 -0.028671497
0.017440949 0.0097646145 -0.05102437 -0.001558706 -0.023239616 -0.024537904 -0.0063999393 -0.03738624
0.024714021 -0.015485619 -0.01494067 -0.055662517 -0.026337616 -0.0032769418 -0.06491466 -0.01027687
-0.03065302 -0.010643436 -0.010392427 0.009911764 -0.012948179 -0.09777235 -0.032224733 -0.019117568
8.0525584e-05 -0.065410346 -0.06744282 -0.0685366 -0.09599523 -0.07640796 -0.010365743 -0.06566738
00000000: b9cd b1bb 6e91 a0bc 0dc0 d2bc f1c2 41bd
00000010: dd5f 3cbd 134a 80bd dcb4 8cbc 7fab 94bd
00000020: 42b7 0bbd 28ad 77bd 42f8 3bbd a996 3ebc
00000030: f795 3bbd e42f f8bc 9dec f1bc e30a 5fbc
00000040: 4a32 c0bc 6ab5 3abc 1088 193c c4e8 85bc
00000050: 2e17 01bc ccd0 5cbd 1a0a 33bd 4555 04bd
00000060: 6a4b 07bd 7c7e e2bc 2955 0abd f0b3 febc
00000070: aa39 82bd db6a 11bc 3fb0 c5bc 7de0 eabc
00000080: 52e0 8e3c c3fb 1f3c eefe 50bd 7f4d ccba
00000090: 0261 bebc b703 c9bc 95b6 d1bb 5022 19bd
000000a0: 0f75 ca3c 65b7 7dbc b6c9 74bc 61fe 63bd
000000b0: fcc1 d7bc f6c1 56bb faf1 84bd 5160 28bc
000000c0: 0b1c fbbc ce61 2ebc 0045 2abc f464 223c
000000d0: 9924 54bc df3c c8bd 15fe 03bd 729c 9cbc
000000e0: d8df a838 dcf5 85bd 761f 8abd eb5c 8cbd
000000f0: 2699 c4bd c77b 9cbd 14d5 29bc 9f7c 86bd

conv2d_1/kernel f4 [64, 3, 3, 32]
0.050271004 -0.046367265 0.13273796 0.09389285 0.013995467 0.1351764 0.049401287 0.10885561
0.050216395 0.042660344 0.021339005 -0.11983918 -0.006374052 0.026585493 0.057671025 -0.044660863
0.00030377787 0.039977968 -0.07257565 0.13899988 -0.025256975 0.022854397 0.0080741225 -0.0638435
-0.23740251 0.11598024 0.03898168 -0.05259364 0.12923764 0.079746716 0.042749792 0.010634453
0.085079685 -0.12867269 0.21265352 -0.041101024 0.05732291 -0.02426041 0.0332397 0.0204861
0.08008392 -0.052336697 0.0769843 -0.08951546 0.014819284 0.1445661 0.12168075 -0.18371956
0.07742528 -0.06630222 -0.047044016 0.058260266 0.089446045 -0.012333264 -0.04004333 0.020539654
-0.024212968 -0.04167726 0.013158099 0.03928224 0.028631732 0.083751425 -0.024193726 -0.023770861
-0.06004602 0.11210294 0.12898381 0.06647336 0.08498979 0.11013324 0.011489201 0.120507106
0.0372275 0.089201875 0.0712776 -0.0025693064 0.086928 0.05706655 -0.062680446 -0.05451082
0.09533525 0.04019001 0.089751974 0.014498572 -0.0042055813 -0.048626862 0.07785379 0.09934589
-0.06744938 -0.024422197 -0.08433489 0.093855664 -0.056884725 -0.107595615 0.03514934 -0.031179843
-0.049449407 0.043683182 0.05735779 0.12669012 0.07729894 0.16743766 0.008716041 0.04571293
-0.16669485 -0.03003569 -0.0647709 0.04354071 0.051882155 -0.03208166 -0.033941396 -0.06459117
0.05015294 0.09816792 -0.020547863 -0.034064617 0.05372278 -0.06617503 -0.08205459 0.049204543
-0.06285769 0.015552393 -0.0020718435 -0.04058345 -0.15362811 0.12720506 0.062458638 0.10177481
-0.06801026 -0.2753722 0.07571826 0.158816 0.088665694 -0.010237458 0.058649372 0.012404798
-0.137488 -0.041618727 0.09177392 -0.02548029 -0.13238253 0.14155936 -0.09799607 -0.20638147
0.02642743 0.07899844 0.014231066 0.022850528 0.07286234 0.14949226 -0.06925023 0.1596248
-0.018387415 0.027302878 -0.07659617 -0.07080808 -0.12546642 0.13324092 0.04986033 0.026970997
-0.010330421 -0.097773634 -0.09280576 0.08179699 -0.104936585 -0.013398652 0.030972233 0.07927407
-0.03572667 -0.059723992 0.063341126 0.055862848 -0.099255234 0.016351217 -0.069876805 -0.11823736
0.09824982 -0.04277246 0.03220367 0.022331037 -0.007205304 -0.05557141 -0.0197831 0.07794791
0.029921181 -0.06570741 -0.162513 -0.024144018 -0.069827646 0.01955359 -0.09537182 0.05713955
0.016645635 -0.19393139 -0.036843274 0.10679737 -0.12808172 0.06307048 0.010678096 -0.04153904
0.014252423 -0.037229497 -0.11066889 0.049742505 -0.102309234 -0.022222357 -0.02427446 -0.113484345
-0.057326175 -0.040365603 0.05276755 -0.09162151 -0.043644067 -0.09000491 -0.028518248 -0.04997676
-0.0041063186 0.11130484 0.046522465 -0.018280547 0.06807068 0.039701957 -0.030701112 -0.06608791
-0.06967816 -0.3156139 -0.09537231 0.07732117 -0.12306901 0.044326235 -0.1316215 -0.19414587
0.05809386 -0.026696151 -0.1836768 0.021142323 -0.062177673 -0.03430273 -0.20835537 -0.021693965
0.07307936 0.013423455 -0.025033964 -0.2078987 -0.016731659 -0.13543722 -0.17974827 -0.0075655715
0.030365372 0.018876985 0.009945367 -0.15975642 0.09732948 -0.18073219 0.0062123807 -0.027467499
00000000: f8e8 4d3d 9aeb 3dbd 76ec 073e e54a c03d
00000010: 3e4d 653c af6b 0a3e 0159 4a3d b1ef de3d
00000020: b5af 4d3d 9dbc 2e3d 23cf ae3c 3e6e f5bd
00000030: 6cdd d0bb d2c9 d93c 7438 6c3d 4fee 36bd
00000040: 6044 9f39 f0bf 233d 8ba2 94bd fc55 0e3e
00000050: b7e7 cebc 2539 bb3c 5349 043c 62c0 82bd
00000060: a519 73be 0c87 ed3d 41ab 1f3d 6e6c 57bd
00000070: df56 043e 3f52 a33d 681a 2f3d 213c 2e3c
00000080: 423e ae3d c6c2 03be d8c1 593e 8c59 28bd
00000090: 6dcb 6a3d c4bd c6bc 5a26 083d 77d2 a73c
000000a0: 0a03 a43d 015f 56bd f2a9 9d3d e253 b7bd
000000b0: 95cc 723c 2309 143e c233 f93d fb20 3cbe
000000c0: 2591 9e3d 75c9 87bd 3ab1 40bd 51a2 6e3d
000000d0: 7d2f b73d 7511 4abc 7a04 24bd c742 a83c
000000e0: 465a c6bc c6b5 2abd 1195 573c 6ae6 203d
000000f0: 188d ea3c de85 ab3d ec31 c6bc 1cbb c2bc
00000100: d1f2 75bd 3a96 e53d 5514 043e 2f23 883d
00000110: 210f ae3d 898d e13d 343d 3c3c 6ecc f63d
00000120: dd7b 183d 79af b63d fef9 913d cf61 28bb
00000130: 4f07 b23d 9dbe 693d 9b5e 80bd bd46 5fbd
00000140: 213f c33d 489e 243d e2cf b73d 6b8b 6d3c
00000150: f9ce 89bb f62c 47bd cf71 9f3d dc75 cb3d
00000160: e722 8abd 0f11 c8bc c5b7 acbd 6637 c03d
00000170: f5ff 68bd 175b dcbd c1f8 0f3d df6c ffbc
00000180: 768b 4abd 23ed 323d 01f0 6a3d 0ebb 013e
00000190: e84e 9e3d c774 2b3e bacd 0e3c 7b3d 3b3d
000001a0: 0eb2 2abe 680d f6bc 9ba6 84bd be57 323d
000001b0: 6282 543d 0f68 03bd 2206 0bbd 6048 84bd
000001c0: 2b6d 4d3d 430c c93d fe53 a8bc 5787 0bbd
000001d0: 6b0c 5c3d c686 87bd 3d0c a8bd b48a 493d
000001e0: 88bb 80bd 77cf 7e3c c4c7 07bb d53a 26bd
000001f0: b050 1dbe 0b42 023e a1d4 7f3d 506f d03d
00000200: f748 8bbd 96fd 8cbe 2d12 9b3d a9a0 223e
00000210: 5c96 b53d 03bb 27bc 533a 703d 7e3d 4b3c
00000220: a7c9 0cbe 6678 2abd f7f3 bb3d 0bbc d0bc
00000230: 498f 07be f0f4 103e 2ab2 c8bd aa55 53be
00000240: 567e d83c efc9 a13d 6b29 693c 0831 bb3c
00000250: da38 953d 8014 193e 11d3 8dbd af74 233e
00000260: 34a1 96bc 49aa df3c 74de 9cbd d403 91bd
00000270: 457a 00be 4f70 083e 583a 4c3d 48f2 dc3c
00000280: ed40 29bc 8b3d c8bd f210 bebd 2e85 a73d
00000290: fee8 d6bd 0586 5bbc 7bb9 fd3c 725a a23d
000002a0: 2156 12bd 25a1 74bd feb8 813d 71d0 643d
000002b0: 5446 cbbd fdf2 853c 921b 8fbd 6e26 f2bd
000002c0: 3437 c93d 2d32 2fbd ffe7 033d 94ef b63c
000002d0: 791a ecbb d99e 63bd 2b10 a2bc 27a3 9f3d
000002e0: 441d f53c 9b91 86bd cf69 26be adc9 c5bc
000002f0: cc01 8fbd da2e a03c 4d52 c3bd 290b 6a3d
00000300: 6d5c 883c f395 46be f9e8 16bd 94b8 da3d
00000310: db27 03be 192b 813d 2ef3 2e3c d724 2abd
00000320: ff82 693c f57d 18bd 5fa6 e2bd ccbe 4b3d
00000330: 8187 d1bd a90b b6bc 3bdb c6bc 7b6a e8bd
00000340: dace 6abd 6756 25bd c922 583d 0fa4 bbbd
00000350: 1fc4 32bd 7f54 b8bd 1a9f e9bc 6eb4 4cbd
00000360: 4c8e 86bb cbf3 e33d 578e 3e3d 16c1 95bc
00000370: a468 8b3d 859e 223d e680 fbbc 1959 87bd
00000380: 6cb3 8ebd 2598 a1be 8f52 c3bd 905a 9e3d
00000390: 9b0b fcbd 6d8f 353d c9c7 06be 2dce 46be
000003a0: d4f3 6d3d e3b1 dabc c515 3cbe aa32 ad3c
000003b0: 04ae 7ebd 0581 0cbd 1c5b 55be 8bb7 b1bc
000003c0: a2aa 953d 0dee 5b3c 0714 cdbc 66e3 54be
000003d0: d510 89bc 0eb0 0abe ee0f 38be 9de8 f7bb
000003e0: cdc0 f83c e8a3 9a3c e5f1 223c 3097 23be
000003f0: ae54 c73d dc11 39be 3a91 cb3b 8503 e1bc

conv2d_2/Conv2D_bias f4 [64]
-0.037175056 -0.031002458 -0.019885287 0.015766948 0.016995553 -0.016768903 -0.034220275 -0.019878153
-0.015149008 -0.06111 -0.019907987 -0.0008395146 -0.0020671007 -0.037532747 -0.044075396 -0.04610617
-0.005558986 -0.02125704 -0.025014762 -0.017317098 -0.049726672 -0.0031340776 -0.053640254 -0.033251945
-0.032129113 -0.020170966 -0.015564351 -0.01716395 -0.016874371 -0.01592684 0.013247457 -0.055259343
-0.016406722 -0.033914354 -0.049646895 -0.044125497 -0.053431332 -0.042708967 -0.037783924 0.037205525
-0.0391868 -0.008982332 -0.06955223 -0.051190156 -0.03273138 -0.034262422 -0.021539727 -0.017671809
0.0070695058 -0.010907447 -0.022025904 -0.07444023 -0.011542885 -0.033056375 -0.008467634 -0.028501293
-0.018937942 -0.06291362 -0.05774374 -0.021603707 -0.03237812 -0.04042397 -0.047699995 -0.051724475
00000000: df44 18bd def8 fdbc 78e6 a2bc b029 813c
00000010: 423a 8b3c f05e 89bc 8f2a 0cbd 82d7 a2bc
00000020: 8b33 78bc 7b4e 7abd 1316 a3bc df12 5cba
00000030: 3278 07bb f0bb 19bd 6788 34bd d3d9 3cbd
00000040: 2828 b6bb 3e23 aebc c2eb ccbc 96dc 8dbc
00000050: 32ae 4bbd 1965 4dbb e2b5 5bbd 3133 08bd
00000060: d199 03bd 953d a5bc 9f01 7fbc 699b 8cbc
00000070: 1f3c 8abc 0179 82bc dd0b 593c 9f57 62bd
00000080: 6467 86bc c7e9 0abd 8b5a 4bbd f0bc 34bd
00000090: d0da 5abd 99ef 2ebd 51c3 1abd d264 183d
000000a0: 5782 20bd a22a 13bc 6671 8ebd c5ac 51bd
000000b0: 5711 06bd c156 0cbd 1574 b0bc 78c4 90bc
000000c0: 50a7 e73b 26b5 32bc ab6f b4bc 1f74 98bd
000000d0: 5e1e 3dbc 1f66 07bd d5bb 0abc 8b7b e9bc
000000e0: be23 9bbc dbd8 80bd b384 6cbd 42fa b0bc
000000f0: eb9e 04bd 9b93 25bd 1261 43bd 0bdd 53bd

conv2d_2/kernel f4 [64, 3, 3, 64]
0.035120893 -0.016724244 0.09844291 0.04456281 0.056230787 -0.09223652 -0.039568115 -0.053951394
-0.116799414 -0.0952898 0.11831066 0.047001157 0.038191754 -0.10799863 0.08595393 -0.10714996
0.10731086 0.027947376 -0.031028967 -0.07520643 -0.054986037 -0.014733404 0.04746102 0.009674294
0.091272525 -0.015469342 0.044976052 0.016033625 -0.017973738 0.07236055 0.0759124 0.045177437
0.005262417 -0.008511022 -0.07072909 0.16436443 0.15387681 -0.15608038 -0.091827236 0.058615457
-0.09891718 0.17573527 0.07403531 -0.03616737 -0.06984925 -0.0027822857 -0.083994746 -0.008869708
0.082775496 -0.1524541 -0.08111271 0.054461878 -0.0696171 0.06475508 0.031201303 -0.05520828
-0.085672386 0.10330261 0.1415145 -0.028818997 0.06452904 -0.06374757 -0.06255421 -0.080818765
0.06728203 -0.0052635306 -0.03962129 0.042106405 -0.044529404 -0.039962817 -0.010102291 -0.06370311
0.11733784 -0.006004739 -0.00026660113 -0.046908204 -0.08836285 0.06654439 0.025558904 0.09095887
-0.0028779723 0.05518245 0.050126214 0.034070518 0.08147635 0.041275177 -0.0770557 -0.023498768
0.056342363 -0.033884615 -0.0384892 0.09162965 0.07014994 -0.034178738 0.014504327 0.032251865
-0.018424295 -0.14126545 0.012561991 -0.006019619 -0.081997246 0.0019728416 -0.026146667 -0.14171217
-0.03940195 -0.10693831 0.045391485 -0.08529628 0.011340297 0.03639785 -0.003469464 0.04775279
0.012430851 0.06846278 -0.021652024 -0.0047904933 0.09144853 0.061442953 -0.015158091 0.023581443
-0.036165494 0.059436265 0.043362767 0.007911622 0.083595924 0.02389846 -0.006381295 0.074830495
0.08460066 -0.03389657 -0.069345765 0.08187427 0.0017384177 -0.047505356 -0.03276371 0.05904334
0.0612846 0.06706149 -0.12346929 0.031963147 -0.01496877 -0.07388597 0.090271235 -0.019527413
-0.1944603 -0.0735869 0.02871268 -0.13524422 -0.003167094 0.053314842 -0.13847484 0.11348472
0.05139359 -0.14279571 -0.027076896 -0.040979937 0.022153331 -0.007848925 0.049222156 0.12668055
-0.022702295 -0.17725822 -0.19261326 -0.033395 0.08457266 -0.1284358 0.026888885 -0.0045347204
-0.18089701 -0.10660001 0.056139503 -0.1197509 -0.055673163 -0.09660877 0.045826986 -0.009504556
-0.14511305 -0.013543829 -0.07272816 -0.04253332 0.11705336 0.04618408 -0.21914451 -0.18956566
0.15054512 -0.049409762 -0.047673382 0.0017521508 -0.020765392 -0.07301916 -0.017715814 0.04141721
-0.06836977 -0.010432543 0.022135884 0.004920013 -0.06070225 -0.013225105 0.07642293 -0.07289874
0.016033871 0.06458609 -0.07648237 0.02965474 0.031094624 -0.012904271 0.0052978075 -0.023787612
0.020476528 0.037446193 0.03103866 0.060576454 -0.091515906 -0.09181859 0.06282621 -0.077408
-0.039416436 0.069684096 0.053742155 -0.004234324 -0.041290168 0.14197226 0.014962046 -0.010390389
-0.052992173 0.0032479719 -0.070786975 0.09211271 0.084869996 -0.05524031 0.028918784 0.042551044
-0.047323715 0.065291494 -0.0051303236 0.045177743 -0.03777863 -0.03212058 -0.0826311 0.008354712
0.10734519 -0.067637354 -0.12048164 0.12245446 -0.06401531 0.054960847 0.19134757 0.02019458
-0.11759444 0.07432079 -0.020615436 0.07894133 0.116428845 0.061908446 -0.086146206 0.014042223
00000000: edda 0f3d 4801 89bc 709c c93d 7e87 363d
00000010: 4152 663d 80e6 bcbd 2d12 22bd 23fc 5cbd
00000020: 8834 efbd 4c27 c3bd dc4c f23d 4984 403d
00000030: f56e 1c3d 632e ddbd 9d08 b03d 7071 dbbd
00000040: ccc5 db3d e5f1 e43c 7630 febc d405 9abd
00000050: 0a39 61bd 6064 71bc 7d66 423d ee80 1e3c
00000060: 17ed ba3d 1f73 7dbc cf38 383d f358 833c
00000070: a93d 93bc c531 943d f677 9b3d fa0b 393d
00000080: 5a70 ac3b d071 0bbc 6ada 90bd 264f 283e
00000090: e291 1d3e 89d3 1fbe eb0f bcbd c316 703d
000000a0: 1795 cabd f2f3 333e d39f 973d 3c24 14bd
000000b0: 200d 8fbd 0257 36bb 7005 acbd 4052 11bc
000000c0: 3386 a93d ed1c 1cbe 6c1e a6bd 6b13 5f3d
000000d0: 6993 8ebd 509e 843d e099 ff3c 1422 62bd
000000e0: 0175 afbd 5290 d33d 2de9 103e d115 ecbc
000000f0: cd27 843d 168e 82bd 6c1c 80bd 4f84 a5bd
00000100: 29cb 893d b279 acbb ef49 22bd c477 2c3d
00000110: 7764 36bd 0db0 23bd 1484 25bc c776 82bd
00000120: d24e f03d 67c3 c4bb 99c6 8bb9 d122 40bd
00000130: 95f7 b4bd 6d48 883d e860 d13c a548 ba3d
00000140: 5d9c 3cbb fe06 623d 2551 4d3d 878d 0b3d
00000150: 13dd a63d 2910 293d 61cf 9dbd 7d80 c0bc
00000160: 40c7 663d 98ca 0abd daa6 1dbd 53a8 bb3d
00000170: c6aa 8f3d 01ff 0bbd 8fa3 6d3c 881a 043d
00000180: 8cee 96bc e4a7 10be cfd0 4d3c 3940 c5bb
00000190: 2cee a7bd ca4a 013b 8931 d6bc ff1c 11be
000001a0: f063 21bd 7902 dbbd 6cec 393d d1af aebd
000001b0: a7cc 393c e915 153d f25f 63bb 6e98 433d
000001c0: c5aa 4b3c 3736 8c3d 965f b1bc 92f9 9cbb
000001d0: 5e49 bb3d 9bab 7b3d a459 78bc df2d c13c
000001e0: 4522 14bd 7173 733d 289d 313d bf9f 013c
000001f0: 5734 ab3d b4c6 c33c 2f1a d1bb bb40 993d
00000200: 1c43 ad3d 21d7 0abd 2705 8ebd b3ad a73d
00000210: 9edb e33a fa94 42bd 3d33 06bd 6ed7 713d
00000220: 9005 7b3d 8957 893d 78dd fcbd caeb 023d
00000230: 923f 75bc 8751 97bd 20e0 b83d f4f7 9fbc
00000240: 9a20 47be bbb4 96bd db36 eb3c 767d 0abe
00000250: 058f 4fbb aa60 5a3d 59cc 0dbe ad6a e83d
00000260: 1682 523d 0a39 12be 5ed0 ddbc 94da 27bd
00000270: e77a b53c c798 00bc 2c9d 493d 8cb8 013e
00000280: 2afa b9bc 2e83 35be 693c 45be 32c9 08bd
00000290: 6e34 ad3d ad84 03be 1446 dc3c fe97 94bb
000002a0: 113d 39be 1b51 dabd 89f2 653d f63f f5bd
000002b0: 8b09 64bd d2da c5bd 14b5 3b3d ffb8 1bbc
000002c0: 8498 14be f0e6 5dbc 80f2 94bd 6b37 2ebd
000002d0: acb9 ef3d 852b 3d3d 6b67 60be 801d 42be
000002e0: 8028 1a3e e461 4abd 2a45 43bd 6da8 e53a
000002f0: 2f1c aabc 128b 95bd c120 91bc 18a5 293d
00000300: 7305 8cbd 42ed 2abc 5056 b53c 0f38 a13b
00000310: eca2 78bd 1cae 58bc a083 9c3d ef4b 95bd
00000320: 7759 833c b645 843d caa2 9cbd 7fee f23c
00000330: 27ba fe3c 6f6c 53bc 3b99 ad3b 3dde c2bc
00000340: 64be a73c 2e61 193d ca44 fe3c 041f 783d
00000350: b16c bbbd 630b bcbd 07ab 803d 1688 9ebd
00000360: 2173 21bd 89b6 8e3d bc20 5c3d 16c0 8abb
00000370: e11f 29bd 2d61 113e 5f23 753c 733c 2abc
00000380: 520e 59bd eddb 543b c3f8 90bd 97a5 bc3d
00000390: 52d0 ad3d aa43 62bd 16e7 ec3c 014a 2e3d
000003a0: 83d6 41bd 8cb7 853d 461c a8bb 4c0c 393d
000003b0: c4bd 1abd df90 03bd 7f3a a9bd 34e2 083c
000003c0: ccd7 db3d 7485 8abd 14bf f6bd 67c9 fa3d
000003d0: 751a 83bd a01e 613d 9ef0 433e 1b6f a53c
000003e0: 5bd5 f0bd 8035 983d b4e1 a8bc feab a13d
000003f0: 3f72 ee3d b693 7d3d 6c6d b0bd 5a11 663c

dense/MatMul_bias f4 [64]
0.03851967 -0.0074349167 0.0062171794 -0.07480308 -0.006799815 -0.06355795 0.028124837 0.05585289
-0.005552512 -0.015402117 0.003559381 -0.054287087 -0.046217654 0.009257504 0.010619092 -0.016153663
-0.004234952 0.017612947 -0.021434663 0.010281561 0.033233833 0.055743985 -0.04661048 0.030945342
0.007682238 -0.033409 0.030967666 -0.010799459 -0.07752971 -0.046281636 -0.016015816 -0.056006763
0.013885123 -0.07813649 -0.05132878 -0.07108135 -0.027352858 -0.08653808 0.0378853 -0.061224975
0.031369522 0.0042088144 -0.0046428745 -0.03234271 0.025841128 -0.064989485 0.04770539 0.043614175
-0.031590413 -0.024905073 -0.06450996 -0.011700386 0.030512052 -0.13321236 -0.023554735 0.016456325
-0.0054168724 -0.04567155 -0.05937316 0.02277125 -0.044444572 -0.0025793726 0.018836832 0.003961807
00000000: cdc6 1d3d 9aa0 f3bb 7bb9 cb3b 5b32 99bd
00000010: fcd0 debb ac2a 82bd 0f66 e63c 00c6 643d
00000020: d9f1 b5bb 2959 7cbc 8144 693b 235c 5ebd
00000030: b94e 3dbd c9ac 173c b3fb 2d3c b054 84bc
00000040: 5ac5 8abb 0749 903c bf97 afbc fe73 283c
00000050: 3320 083d ce53 643d a1ea 3ebd 1681 fd3c
00000060: 48bb fb3b e0d7 08bd e7af fd3c 37f0 30bc
00000070: e6c7 9ebd d091 3dbd 9a33 83bc 5967 65bd
00000080: 6d7e 633c 0606 a0bd 203e 52bd 1993 91bd
00000090: 1a13 e0bc e03a b1bd 9e2d 1b3d 0ac7 7abd
000000a0: 547d 003d 18ea 893b 4123 98bb ca79 04bd
000000b0: c6b0 d33c 3519 85bd ba66 433d c7a4 323d
000000c0: f364 01bd b905 ccbc cc1d 84bd fab2 3fbc
000000d0: 69f4 f93c d268 08be dcf5 c0bc 6acf 863c
000000e0: 0580 b1bb 1712 3bbd 4531 73bd c68a ba3c
000000f0: 830b 36bd b10a 29bb b34f 9a3c 0cd2 813b

dense/kernel/transpose f4 [64, 576]
-0.14813976 0.06830298 -0.06163352 0.065345734 0.0069391886 0.008866695 0.019103626 -0.16443467
0.06232873 -0.0919327 0.030701501 0.010904887 0.027975038 0.019730095 -0.053118914 -0.015578417
0.022486128 -0.04470801 0.03422776 -0.10278957 -0.07890949 0.17382331 -0.10070974 0.13986742
0.01451485 0.0461855 -0.09504689 -0.009055536 -0.15766624 0.076376915 -0.08001831 0.056674052
-0.00015708827 0.088332824 -0.022660263 -0.0039765993 -0.02752967 0.0927029 0.059925634 0.026421705
0.030583048 -0.027735937 -0.00060696894 -0.037541803 0.05231786 -0.03206159 0.029391369 0.082786694
-0.07962771 -0.0048363097 -0.015560515 -0.08617661 0.070833765 0.01515837 0.028031519 0.05388241
-0.039537758 0.07747792 0.04995629 -0.043244623 -0.037588857 -0.0424742 -0.047324486 0.015285534
-0.08327324 0.03975396 -0.009320124 0.020564357 -0.119260475 0.1003234 -0.042373843 0.06280925
0.056296915 0.06939275 0.08963975 0.07019689 0.00053292885 -0.080014355 -0.041675877 -0.03887581
0.09210826 -0.018339941 -0.09966727 0.059410483 0.091239445 -0.16330998 -0.043646023 0.022796087
0.1916455 0.159364 -0.11273513 -0.11993436 0.009848327 0.093063354 -0.040508293 0.07587896
-0.092053905 0.04230993 0.019211998 0.17425005 -0.107141815 0.026245004 0.079838865 0.13013148
0.12992387 0.11613204 0.14716688 0.0005629841 0.009155299 0.018728236 0.087971814 0.14529276
-0.04025308 0.08829868 -0.11947894 -0.0042911367 0.02496903 0.02386009 0.15473726 0.054522563
0.047181103 0.10058015 -0.003942951 -0.00851092 -0.04937296 0.016605059 -0.033207137 0.089765035
0.009100851 -0.09945371 0.05292218 -0.14725916 -0.05826608 0.017549934 0.0586773 0.069701284
0.026739294 -0.07074926 -0.028879235 0.07447678 0.059224136 -0.029068818 -0.036205705 -0.040697914
0.11076543 0.16164045 0.106696144 0.09396281 0.033503722 0.09327084 0.084691994 -0.07450684
0.18462744 0.0951604 -0.08240297 0.06721794 0.091839686 -0.1975534 -0.0681874 0.124716006
0.02217362 0.006959247 0.03193235 0.15481924 0.013681618 -0.0058554057 -0.052148856 0.0101120435
0.23189154 -0.029306488 0.013204042 -0.104414746 -0.013068011 0.108002536 -0.06593582 -0.052214906
0.06912281 0.031256407 0.03246415 0.009084165 -0.13020118 -0.07258627 -0.05578136 0.13474487
0.18939167 0.010835822 -0.17575692 0.04659421 -0.06890447 -0.0026187073 0.060172066 0.104901
-0.018738661 0.08939514 0.019933313 0.07422724 0.006959485 0.117367476 -0.011042177 -0.0775262
0.041207246 0.029111587 0.01395897 -0.07571237 0.029630095 -0.043573886 -0.078740664 -0.032299966
-0.04065801 0.044055615 0.015260097 0.083141565 0.011023278 0.1330587 -0.14195341 0.04550922
-0.107654445 0.062402204 0.062261064 0.07485025 -0.023954438 0.015106905 -0.09673541 -0.027681105
-0.08820729 0.038355153 -0.016815094 -0.06273328 0.083672896 -0.039827485 -0.045763034 0.0096939495
-0.19803192 0.055825856 -0.066978194 0.11054172 0.043135747 -0.04850432 -0.01114852 0.16706184
0.021047454 -0.07965475 -0.08918801 -0.022558259 0.17844316 0.14890826 0.19200754 0.08484012
0.052229427 0.06487013 -0.0059471866 -0.006020998 -0.043087568 -0.11143119 -0.029138228 -0.050624263
00000000: f3b1 17be 6fe2 8b3d 6e73 7cbd fcd3 853d
00000010: 2262 e33b 9d45 113c 357f 9c3c 9061 28be
00000020: 694c 7f3d 3647 bcbd b781 fb3c 69aa 323c
00000030: e82b e53c 02a1 a13c 3893 59bd 9e3c 7fbc
00000040: d434 b83c bf1f 37bd 6832 0c3d 5783 d2bd
00000050: 4c9b a1bd bdfe 313e e840 cebd 6839 0f3e
00000060: b2cf 6d3c 022d 3d3d f2a7 c2bd ac5d 14bc
00000070: 4273 21be 806b 9c3d a4e0 a3bd 0d23 683d
00000080: 10b8 24b9 d7e7 b43d 04a2 b9bc 224e 82bb
00000090: e785 e1bc 05db bd3d 9574 753d 5572 d83c
000000a0: 4d89 fa3c 7a36 e3bc ff1c 1fba 6fc5 19bd
000000b0: 414b 563d 0453 03bd 2bc6 f03c 128c a93d
000000c0: da13 a3bd e879 9ebb 88f1 7ebc 5d7d b0bd
000000d0: 4b11 913d d05a 783c 5ba2 e53c cdb3 5c3d
000000e0: 58f2 21bd beac 9e3d f79e 4c3d 4621 31bd
000000f0: c6f6 19bd 6df9 2dbd 52d7 41bd 2d70 7a3c
00000100: 298b aabd 0cd5 223d 6fb3 18bc 9576 a83c
00000110: d63e f4bd 5b76 cd3d 3290 2dbd 23a2 803d
00000120: 9897 663d c91d 8e3d 0c95 b73d 63c3 8f3d
00000130: 40b4 0b3a 91de a3bd 53b4 2abd 3e3c 1fbd
00000140: 41a3 bc3d a53d 96bc 5b1e ccbd 6858 733d
00000150: bfdb ba3d bb3a 27be 2cc6 32bd dcbe ba3c
00000160: b83e 443e 5130 233e ade1 e6bd 25a0 f5bd
00000170: e15a 213c 0098 be3d 06ec 25bd 6e66 9b3d
00000180: c286 bcbd 2d4d 2d3d 7b62 9d3c 9b6e 323e
00000190: 2b6d dbbd c3ff d63c 8f82 a33d 3041 053e
000001a0: c30a 053e a3d6 ed3d eab2 163e 3995 133a
000001b0: 1b00 163c f56b 993c 912a b43d a0c7 143e
000001c0: 6ae0 24bd f0d5 b43d 60b1 f4bd aa9c 8cbb
000001d0: da8b cc3c 3c76 c33c 7273 1e3e 0d53 5f3d
000001e0: f940 413d f7fc cd3d df33 81bb 6371 0bbc
000001f0: 4d3b 4abd 5507 883c 3504 08bd bbd6 b73d
00000200: bc1b 153c 63ae cbbd eec4 583d 1bcb 16be
00000210: 6aa8 6ebd e1c4 8f3c 9c57 703d 8cbf 8e3d
00000220: 5d0c db3c fde4 90bd 2594 ecbc 4887 983d
00000230: 0295 723d bb21 eebc 6f4c 14bd dbb2 26bd
00000240: fcd8 e23d 1385 253e 8283 da3d 936f c03d
00000250: 333b 093d c804 bf3d ff72 ad3d 0b97 98bd
00000260: fa0e 3d3e 75e3 c23d e3c2 a8bd 8fa9 893d
00000270: 7216 bc3d 704b 4abe d6a5 8bbd 1b6b ff3d
00000280: 74a5 b53c 650a e43b 7fcb 023d ef88 1e3e
00000290: dd28 603c b4de bfbb 0a9a 55bd fcac 253c
000002a0: fa74 6d3e 2914 f0bc c455 583c 66d7 d5bd
000002b0: 361b 56bc 6f30 dd3d 5c09 87bd 4cdf 55bd
000002c0: 4390 8d3d b806 003d 21f9 043d c0d5 143c
000002d0: 7553 05be 1ca8 94bd ff7a 64bd 8ffa 093e
000002e0: e4ef 413e bb88 313c 9ff9 33be 92d9 3e3d
000002f0: c91d 8dbd 9e9e 2bbb fc76 763d 56d6 d63d
00000300: d281 99bc cd14 b73d 304b a33c 7404 983d
00000310: 640c e43b 5c5e f03d 3fea 34bc 0ec6 9ebd
00000320: eec8 283d 6c7b ee3c 2ab4 643c 160f 9bbd
00000330: d0ba f23c 887a 32bd c942 a1bd f84c 04bd
00000340: 0389 26bd a973 343d 7c05 7a3c 2046 aa3d
00000350: fb9a 343c 8a40 083e 3c5c 11be e067 3a3d
00000360: ef79 dcbd 7499 7f3d 7505 7f3d 164b 993d
00000370: 193c c4bc f482 773c 371d c6bd 7cc3 e2bc
00000380: 06a6 b4bd 4b1a 1d3d cfbf 89bc 4e7a 80bd
00000390: b25c ab3d 2522 23bd 0572 3bbd 5fd3 1e3c
000003a0: e1c8 4abe a7a9 643d dd2b 89bd b363 e23d
000003b0: 1caf 303d 77ac 46bd 48a8 36bc 4212 2b3e
000003c0: b66b ac3c 0822 a3bd 34a8 b6bd 19cc b8bc
000003d0: ceb9 363e 687b 183e a09d 443e a8c0 ad3d
000003e0: 86ee 553d a1da 843d 9ee0 c2bb cb4b c5bb
000003f0: 977c 30bd 0936 e4bd 4bb3 eebc 635b 4fbd

dense_1/MatMul_bias f4 [10]
-0.07955791 0.013681039 -0.055661097 -0.00055577926 -0.023427416 -0.012567127 -0.0448715 0.014503202
0.033275947 -0.05273583
00000000: 42ef a2bd 7026 603c e4fc 63bd b7b1 11ba
00000010: daea bfbc 5ae6 4dbc 2ecb 37bd d79e 6d3c
00000020: 5c4c 083d 8701 58bd

dense_1/kernel/transpose f4 [10, 64]
-0.4199423 -0.66072696 0.16608638 0.20175041 0.20740435 0.31522352 -0.07675455 -0.4079952
0.022600314 -0.08822095 -0.48995066 -0.0036740564 -0.32130718 -0.3027583 -0.2754862 0.23828578
0.039817303 -0.4687653 -0.043630842 -0.26791364 0.17915465 -0.6323303 0.035369013 0.19828992
-0.2750149 -0.5108249 0.00998444 0.007907714 0.17032152 0.27231646 -0.2595212 -0.28780586
-0.2878676 0.055763636 0.2386969 -0.21882011 0.027452 0.05318946 -0.021012489 -0.29232585
-0.22441548 -0.484575 -0.43325195 0.16038401 -0.04514475 -0.5188889 -0.115329005 -0.085820645
-0.10288496 -0.22769353 0.2620598 0.2208129 -0.2680541 0.11232181 0.05039865 0.21723102
-0.26103452 -0.35474098 -0.05884655 -0.033267368 0.09810127 -0.34994113 -0.4040503 -0.38215813
0.31244117 -0.10964149 -0.50803155 0.09391361 0.109206446 -0.104022644 0.023141073 -0.12901893
-0.23276019 -0.21250762 -0.027218316 0.3561988 0.12435802 -0.611265 0.11231436 -0.27110866
-0.51621956 -0.15316735 0.03356796 0.07738008 0.17350996 0.112554565 0.16847618 -0.14198908
-0.4451303 -0.1959882 0.041666403 0.23357837 0.30022117 0.21135016 -0.22306797 -0.33130345
-0.056525778 -0.574185 0.014970873 0.039641462 0.11049898 -0.13038163 -0.001721128 -0.015407324
-0.06389417 -0.5791683 -0.79773915 -0.11492771 -0.28286844 -0.54954994 0.27911308 -0.4639691
-0.5571333 -0.21404174 -0.49181038 -0.061835308 0.072694145 -0.3475164 -0.37089878 -0.340443
0.045785174 0.024425771 -0.20473342 0.24150151 0.007961168 0.11477744 0.021477452 -0.5751766
-0.20653315 -0.57422286 -0.53065735 0.01626747 -0.4691225 -0.43944725 0.33579943 -0.34478483
-0.048100356 -0.20164692 0.0011011418 -0.20789213 -0.44337478 -0.12886298 0.35274872 -0.4992623
-0.5312666 0.27555245 0.24359082 0.124355406 0.00020265477 -0.3395997 0.18453002 0.0942659
-0.044528022 -0.26702175 -0.15103894 -0.53643894 0.2292146 0.22699733 0.19193985 0.23885846
-0.43494183 -0.006532811 -0.09742822 -0.42025247 -0.3613835 0.18492672 0.20046602 0.039466
-0.42245314 -0.22808824 -0.25870514 0.17627023 0.09761745 -0.68842787 0.050426174 0.06881548
-0.41274565 -0.23660655 -0.1819562 -0.08861442 -0.4941233 0.09826437 -0.4681977 0.103943825
-0.022273837 -0.33065635 -0.077623196 -0.07165633 0.09819818 -0.038861133 0.23416814 0.31187308
0.24312302 -0.20034422 0.015115433 0.20863818 -0.30230024 -0.040694226 0.21234289 0.34844813
-0.28196934 0.08408805 0.084526844 -0.38168603 -0.37554857 0.20478405 -0.22648562 0.0722944
-0.40935072 -0.4402731 -0.16840418 0.047570787 0.25866777 0.08560314 -0.4432974 0.26299253
-0.34332746 -0.47275805 -0.15065177 -0.5104769 -0.12574674 -0.45659113 0.28548947 -0.38312736
-0.6050977 -0.2735448 -0.060642034 -0.24068978 -0.06657645 -0.51754403 0.2204993 -0.25628108
-0.0027672464 -0.17847778 -0.37270993 -0.080357455 -0.025862012 -0.37236497 0.05767305 0.2901685
-0.4551821 -0.23942241 -0.50082123 0.15902421 0.30963197 -0.47107655 0.0852014 0.16756828
0.18268046 -0.37423337 -0.28138998 0.27511066 -0.43490112 -0.5899673 -0.26208845 -0.037487872
00000000: ad02 d7be 6725 29bf 8c12 2a3e a997 4e3e
00000010: ce61 543e fa64 a13e 7d31 9dbd bfe4 d0be
00000020: 4b24 b93c 2fad b4bd d0da fabe 70c8 70bb
00000030: 6082 a4be 2303 9bbe 870c 8dbe 3001 743e
00000040: 7817 233d 0102 f0be 41b6 32bd fa2b 89be
00000050: 5174 373e 66e0 21bf 19df 103d 830c 4b3e
00000060: c1ce 8cbe 6cc5 02bf c795 233c 5b8f 013c
00000070: c468 2e3e 106d 8b3e f6df 84be 4a5b 93be
00000080: 6263 93be 6968 643d f66c 743e 6112 60be
00000090: 04e3 e03c 31dd 593d 6222 acbc bcab 95be
000000a0: 2ccd 65be 371a f8be 33d3 ddbe b53b 243e
000000b0: b4e9 38bd e7d5 04bf 9d31 ecbd bcc2 afbd
000000c0: 5ab5 d2bd 7e28 69be b42c 863e c71c 623e
000000d0: 633e 89be fa08 e63d d16e 4e3d cf71 5e3e
000000e0: 51a6 85be 9ca0 b5be 1409 71bd 5d43 08bd
000000f0: 52e9 c83d 7c2b b3be aedf cebe 3baa c3be
00000100: 4af8 9f3e b88b e0bd 5b0e 02bf c755 c03d
00000110: a1a7 df3d d309 d5bd 5992 bd3c 8a1d 04be
00000120: b058 6ebe 999b 59be f2f8 debc b05f b63e
00000130: 6baf fe3d dd7b 1cbf 1205 e63d c1ce 8abe
00000140: f726 04bf e7d7 1cbe 8f7e 093d 7379 9e3d
00000150: 98ac 313e 0283 e63d 0585 2c3e 9665 11be
00000160: 1ee8 e3be 21b1 48be 64aa 2a3d 2b2f 6f3e
00000170: 97b6 993e 2d6c 583e ee6b 64be 9ba0 a9be
00000180: 9387 67bd cafd 12bf 6448 753c 165f 223d
00000190: 4a4d e23d c382 05be 7997 e1ba 006f 7cbc
000001a0: f2da 82bd 6044 14bf a238 4cbf 385f ebbd
000001b0: 22d4 90be 4eaf 0cbf e9e7 8e3e 5c8d edbe
000001c0: 4aa0 0ebf c22d 5bbe 92ce fbbe 0547 7dbd
000001d0: abe0 943d abed b1be 72e6 bdbe 8b4e aebe
000001e0: 3c89 3b3d 8e18 c83c a3a5 51be 2c4c 773e
000001f0: 8f6f 023c 6f10 eb3d 7bf1 af3c c63e 13bf
00000200: 6d7d 53be 4500 13bf 29d9 07bf 5b43 853c
00000210: d330 f0be 3bff e0be e7ed ab3e a387 b0be
00000220: e104 45bd 887c 4ebe 3054 903a ade1 54be
00000230: 0502 e3be a8f4 03be 7b9b b43e 4f9f ffbe
00000240: 1701 08bf 3615 8d3e df6f 793e 0cae fe3d
00000250: ba7f 5439 03e0 adbe 70f5 3c3e 7b0e c13d
00000260: 0463 36bd 13b7 88be f4a9 1abe 1054 09bf
00000270: 3bb7 6a3e fd71 683e e18b 443e 5097 743e
00000280: b2b0 debe 3111 d6bb 7288 c7bd 552b d7be
00000290: 4207 b9be 6e5d 3d3e f746 4d3e 1aa7 213d
000002a0: c74b d8be f78f 69be 0075 84be 2f80 343e
000002b0: a8eb c73d cf3c 30bf ad8b 4e3d 21ef 8c3d
000002c0: 6653 d3be fd48 72be ba52 3abe 7a7b b5bd
000002d0: bbfd fcbe d43e c93d 9cb7 efbe 80e0 d43d
000002e0: 9f77 b6bc ca4b a9be e9f8 9ebd 8ec0 92bd
000002f0: 211c c93d da2c 1fbd c6c9 6f3e d4ad 9f3e
00000300: 3ef5 783e 0927 4dbe b9a6 773c 3fa5 553e
00000310: 19c7 9abe fdae 26bd 6a70 593e cb67 b23e
00000320: 495e 90be 5b36 ac3d 691c ad3d 5a6c c3be
00000330: e747 c0be e9b2 513e d9eb 67be 160f 943d
00000340: 6b96 d1be 7a6b e1be 2572 2cbe 96d9 423d
00000350: 1a70 843e b350 af3d e0f7 e2be f5a6 863e
00000360: 9ec8 afbe 580d f2be 7544 1abe 9dae 02bf
00000370: c1c3 00be 50c6 e9be ad2b 923e 4529 c4be
00000380: afe7 1abf 100e 8cbe c863 78bd 6277 76be
00000390: 3c59 88bd c47d 04bf 92ca 613e 4637 83be
000003a0: b15a 35bb e1c2 36be d6d3 bebe 7392 a4bd
000003b0: 92dc d3bc 9fa6 bebe 933a 6c3d f790 943e
000003c0: a10d e9be 262b 75be d235 00bf 3ed7 223e
000003d0: 1588 9e3e f230 f1be 127e ae3d 0597 2b3e
000003e0: 9610 3b3e 849b bfbe 5912 90be 4edb 8c3e
000003f0: 5cab debe 1908 17bf 7530 86be e28c 19bd
